model.tflite (tflite, 48696 bytes, 8 tensors)

arith.constant f4 [2, 32]
0	0xbe99f696	-0.30070943
1	0x3ee69430	0.45034933
2	0xbe3fe728	-0.18740523
3	0xbe6e0f0f	-0.23247932
4	0xbe3515a3	-0.17684035
5	0xbea2edd5	-0.31822076
6	0x3e5270e6	0.2055088
7	0x3e99377f	0.29925153
8	0xbe4f9b36	-0.20274052
9	0xbf111ec9	-0.566876
10	0xbeb3c7b2	-0.35113293
11	0x3e82d05a	0.25549585
12	0x3c7125e6	0.014718508
13	0x3e77a476	0.2418383
14	0x3c19619b	0.00936165
15	0xbdfa15cc	-0.12211189
16	0xbe8ee11f	-0.2790613
17	0xbe250c8c	-0.16118068
18	0x3e8f6df1	0.28013566
19	0x3ee81e91	0.4533582
20	0x3ef81142	0.48450667
21	0xbec23892	-0.37933785
22	0x3f04a011	0.5180674
23	0x3c588848	0.013216086
24	0x3ee14576	0.43998307
25	0xbef720f7	-0.48267338
26	0x3e95aff7	0.29235813
27	0xbe7f79bf	-0.24948786
28	0xbeac65d5	-0.33671442
29	0xbe9f8d39	-0.31162432
30	0x3d82673b	0.06367346
31	0x3e63d48f	0.22249053
32	0xbd3aea4b	-0.045633595
33	0xbe0a8900	-0.13528824
34	0x3ea58d37	0.323343
35	0x3ec353cb	0.38149866
36	0x3e883897	0.26605675
37	0x3ea789e9	0.32722405
38	0xbf150fd2	-0.58227265
39	0x3ea72181	0.3264275
40	0x3ece69c4	0.40315068
41	0x3f09e2cc	0.5386169
42	0x3e3af24d	0.18256493
43	0xbe00f669	-0.12593998
44	0x3e8ef254	0.27919257
45	0xbd1714f0	-0.036885202
46	0xbeb6839c	-0.35647285
47	0x3be7b3c0	0.0070709884
48	0xbe2797d2	-0.16366509
49	0x3ee24951	0.4419656
50	0xbd464ca8	-0.04841295
51	0xbe341398	-0.175856
52	0x3d98e4cf	0.07465517
53	0xbeaf1f6b	-0.34203658
54	0xbee1b0a1	-0.4408007
55	0xbeedc391	-0.46438268
56	0xbcda6a60	-0.026662052
57	0x3eb594b8	0.35465026
58	0x3eb9cbf9	0.3628843
59	0x3ebd2ba9	0.36947373
60	0x3ed2bfff	0.41162106
61	0xbdb7ae15	-0.089687504
62	0xbf0ad690	-0.54233646
63	0xbed81938	-0.4220674

arith.constant1 f4 [32, 64]
0	0xbe3d6158	-0.18494165
1	0x3e0571b9	0.13031663
2	0xbd705226	-0.058672093
3	0x3e6a4174	0.22876531
4	0xbe584fac	-0.21124142
5	0x3e32223c	0.17395872
6	0xbe1d6ebd	-0.15374275
7	0xbe36afe8	-0.1784054
8	0x3deb20ef	0.11480891
9	0xbe5216e7	-0.20516549
10	0xbe05d12b	-0.13068072
11	0x3e4af65c	0.19820541
12	0xbdf42853	-0.11921754
13	0x3d6e4e50	0.058180153
14	0x3e1898c4	0.14902025
15	0xbd5a2435	-0.053257186
16	0x3e379ab2	0.17930105
17	0xbe2ba5e0	-0.16762495
18	0xbe40add7	-0.18816315
19	0xbe515c1b	-0.20445292
20	0x3e00fa29	0.12595429
21	0xbdb69a03	-0.08916094
22	0x3d1d1132	0.038346477
23	0xbd830e37	-0.06399196
24	0xbce4540f	-0.027872114
25	0x3d0591fc	0.032609925
26	0x3e3d5142	0.18488029
27	0x3e5395a8	0.20662558
28	0xbe86c0b3	-0.26318893
29	0xbdfc660b	-0.12324151
30	0x3d03e47f	0.032200333
31	0xbe52efe8	-0.2059933
32	0xbe82c25e	-0.25538915
33	0xbdeee028	-0.11663848
34	0x3d5d2a02	0.05399514
35	0xbd61c790	-0.05512196
36	0x3d9c0bbb	0.07619425
37	0x3e261342	0.16218284
38	0x3d24ff9f	0.04028284
39	0x3e05aa68	0.13053286
40	0xbe8a89b0	-0.27058172
41	0xbd125740	-0.03572774
42	0xbda1f980	-0.079089165
43	0x3e005fa0	0.12536478
44	0xbc7d5346	-0.0154617485
45	0x3e61becc	0.2204544
46	0xbe813666	-0.25236815
47	0x3e43d034	0.19122392
48	0x3e213f24	0.15746742
49	0xbd6be02b	-0.05758683
50	0xbe524862	-0.20535424
51	0xbe883791	-0.26604894
52	0xbd975d10	-0.07390797
53	0x3d98e68c	0.07465848
54	0xbe1e68d4	-0.15469676
55	0xbe0c17bc	-0.13680929
56	0x3d967edf	0.073484175
57	0x3e447d44	0.1918841
58	0x3cdd712a	0.0270315
59	0x3dd6a875	0.104813494
60	0xbe80a50f	-0.2512593
61	0x3d7c19e0	0.061548114
62	0xbdc698ea	-0.09697135
63	0x3d13a2f0	0.03604406
64	0x3e2e0280	0.16993141
65	0xbdc374c9	-0.095437594
66	0x3e9798a7	0.29608652
67	0x3e116775	0.14199622
68	0xbd99d754	-0.07511774
69	0x3e662849	0.22476305
70	0x3e80e61e	0.25175565
71	0xbe1ff4f7	-0.1562079
72	0x3e1252fb	0.14289467
73	0xbe094ff4	-0.13409406
74	0xbe285033	-0.16436844
75	0x3d7e7e9f	0.062132474
76	0xbe0a67e3	-0.13516192
77	0x3e404e94	0.18779975
78	0x3c45d8cf	0.012075617
79	0xbe490320	-0.19630098
80	0xbe6dfeef	-0.2324178
81	0xbe1990b8	-0.14996612
82	0x3d1e67ac	0.038673088
83	0xbd3c3317	-0.04594716
84	0xbe94e54d	-0.29081193
85	0x3e1062a6	0.14100131
86	0x3d195668	0.03743592
87	0x3e9039de	0.2816915
88	0xbe56c969	-0.2097527
89	0x3e214edf	0.15752743
90	0xbd58a5d0	-0.052892506
91	0xbe30d5bc	-0.17269033
92	0x3e56abea	0.20964018
93	0xbde0c71f	-0.10975479
94	0x3e8805fa	0.2656706
95	0xbe9f10af	-0.31067416
96	0xbd92def6	-0.07171433
97	0xbe933d59	-0.28757742
98	0x3e95f23c	0.29286373
99	0xbe1a6b66	-0.15080032
100	0x3d9bb5b6	0.07603018
101	0xbd87fe7c	-0.06640336
102	0x3da6553f	0.08121728
103	0xbe2c5861	-0.16830589
104	0x3e6c8479	0.2309741
105	0x3e268e86	0.16265306
106	0xbc74340b	-0.014904986
107	0x3d956fc5	0.07296709
108	0xbeace1f2	-0.33766133
109	0x3d030d95	0.031995375
110	0x3e198697	0.14992748
111	0xbe5e6dac	-0.21721524
112	0x3d35e5b0	0.0444085
113	0x3dee32b2	0.11630763
114	0x3deab86a	0.114609554
115	0x3e5dd5cd	0.2166359
116	0x3e69c308	0.22828305
117	0xbe9f18a9	-0.31073502
118	0xbd998a25	-0.07497052
119	0xbde09431	-0.10965765
120	0xbd299697	-0.04140338
121	0xbdfb384d	-0.12266598
122	0x3e8334bf	0.2562618
123	0x3e115d1d	0.14195676
124	0x3e2b37da	0.16720524
125	0xbe04b0ec	-0.12958115
126	0x3e3c4e13	0.18389158
127	0xbe00c05e	-0.12573382
128	0x3e59dc54	0.21275455
129	0xbdc5fc13	-0.0966722
130	0xbdc776e2	-0.09739472
131	0xbe12d0e2	-0.14337495
132	0x3e4ac3b1	0.19801213
133	0xbb768a66	-0.0037619113
134	0x3e35d226	0.17755947
135	0xbd9fedf0	-0.07809055
136	0xbe4b4750	-0.19851422
137	0xbe0ae863	-0.13565211
138	0x3e20cc04	0.15702826
139	0xbc1d845f	-0.009614079
140	0xbe0bc240	-0.13648319
141	0xbe0b3590	-0.13594651
142	0xbe31cde2	-0.17363694
143	0xbe0337d2	-0.12814263
144	0xbdbd590e	-0.092455015
145	0x3e001224	0.1250692
146	0xbe537a22	-0.20652059
147	0x3d12298d	0.035684157
148	0xbdc25b95	-0.09490124
149	0xbe6ea1c8	-0.23303902
150	0xbe51e23f	-0.20496462
151	0xbe68a7d6	-0.22720274
152	0x3d8a3fac	0.06750426
153	0xbceffff6	-0.029296856
154	0x3e69e242	0.22840217
155	0xbda6d753	-0.081465386
156	0x3e608934	0.21927339
157	0xbe72b713	-0.2370265
158	0xbd50798b	-0.050897162
159	0xbe84525f	-0.25844094
160	0xbe3488ef	-0.17630361
161	0xbaf7ec16	-0.0018914964
162	0x3c1c6983	0.00954664
163	0x3e51431e	0.2043576
164	0x3bfb2df8	0.007665392
165	0x3dc9113d	0.09817741
166	0x3e66b000	0.22528076
167	0x3e2c44f9	0.16823186
168	0xbd11f01d	-0.03562938
169	0x3dd873bc	0.105689496
170	0xbd00b190	-0.031419337
171	0xbe3503fd	-0.17677303
172	0x3dcd4927	0.10023718
173	0xbd04092e	-0.032235317
174	0xbe554f8d	-0.20831127
175	0xbe0c1e86	-0.13683519
176	0x3d87cae0	0.06630492
177	0xbe30c91a	-0.17264214
178	0xbe1cdb81	-0.15318109
179	0x3c96c38d	0.018403793
180	0x3d2295c0	0.039693594
181	0xbca4a10d	-0.020096326
182	0xbde31e00	-0.110897064
183	0x3e64f938	0.22360694
184	0x3e6a74c7	0.2289611
185	0xbe4bdd34	-0.19908601
186	0x3e1689df	0.14701031
187	0xbc999864	-0.018749423
188	0x3c2ddfc2	0.01061243
189	0x3d857f30	0.065184
190	0x3cf14ec2	0.0294565
191	0x3e7d3846	0.24728498
192	0x3c62b900	0.013838053
193	0xbe724f08	-0.2366296
194	0x3d704cb0	0.058666885
195	0x3d9d1f70	0.07672012
196	0x3ca76100	0.020431995
197	0x3e43aef0	0.19109702
198	0xbcdf6a60	-0.027272403
199	0xbc2c76c0	-0.010526359
200	0x3d0d0b40	0.034434557
201	0xba337400	-0.00068455935
202	0xbd209770	-0.039206922
203	0xbd115ac0	-0.035486937
204	0xbe5f29a4	-0.21793228
205	0x3e4c2d7c	0.19939226
206	0x3dd78628	0.10523635
207	0xbdc7bec8	-0.097531855
208	0x3de6c640	0.11268282
209	0x3cff52c0	0.031167388
210	0xbe1bf500	-0.15230179
211	0xbe796248	-0.24353898
212	0x3d57dc00	0.052700043
213	0x3bd3f200	0.0064680576
214	0xbe3ab7fc	-0.18234247
215	0xbe5ce118	-0.21570241
216	0xbe7dac94	-0.24772865
217	0x3e05bccc	0.13060302
218	0x3e2e232c	0.17005605
219	0xbe265c98	-0.16246259
220	0xbc370380	-0.011170268
221	0x3d1eb120	0.03874314
222	0x3c0ff8c0	0.008787334
223	0x3e554850	0.20828366
224	0xbd80a038	-0.06280559
225	0xbb147700	-0.0022653937
226	0x3e5d7198	0.21625364
227	0x3e3df0ec	0.18548936
228	0x3e0d1488	0.13777363
229	0x3dc13c60	0.09435344
230	0xbd20af60	-0.03922975
231	0xbd7b1f20	-0.06130898
232	0xbe7fe9b4	-0.24991494
233	0xbe4a1bbc	-0.19737142
234	0xbaa2e000	-0.0012426376
235	0xbda39d08	-0.07988936
236	0xbc95aea0	-0.018271744
237	0xbc1b3100	-0.009472132
238	0xbcbb4460	-0.022859752
239	0xbd4ddbb0	-0.05025834
240	0xbd9bf9d8	-0.07616013
241	0x3e75e84c	0.24014395
242	0xbe48f090	-0.19623017
243	0x3e110618	0.14162481
244	0xbe569714	-0.20956069
245	0xbe398428	-0.1811682
246	0xbe2e5a84	-0.17026716
247	0x3cb5f120	0.022209704
248	0xbdd1ef40	-0.102507114
249	0xbcf7ac80	-0.030233622
250	0x3dc1c8e0	0.09462142
251	0xbe3533d4	-0.17695552
252	0xbd575960	-0.05257547
253	0xbd060b30	-0.032725513
254	0xba769000	-0.0009405613
255	0xbd3dead0	-0.046366513

arith.constant2 f4 [64, 128]
0	0xbd1c5134	-0.03816338
1	0xbda4d21f	-0.0804789
2	0x3e0ba25f	0.13636158
3	0xbcc00be8	-0.023443177
4	0x3d7de370	0.06198448
5	0x3de56fb6	0.11202948
6	0xbd0ff514	-0.035145834
7	0x3d9afb7a	0.075674966
8	0xbe1db774	-0.15402013
9	0xbca12458	-0.01967065
10	0x3db25eda	0.08709498
11	0x3d5abf94	0.05340536
12	0xbcbab060	-0.02278918
13	0xbe26a1f6	-0.1627272
14	0x3cd91420	0.026498854
15	0xbdc1dc28	-0.094658196
16	0xbdf0fdc8	-0.11767155
17	0xbbb90260	-0.005646035
18	0x3e25b003	0.16180424
19	0xbe081118	-0.13287771
20	0x3d531d5c	0.05154167
21	0x3db94d46	0.09047942
22	0xbe1f2f9d	-0.15545507
23	0xbd987654	-0.07444444
24	0xbd9da5be	-0.076976284
25	0x3ba343a0	0.0049824268
26	0x3da93e86	0.082638785
27	0xbdebbd1c	-0.11510679
28	0xbddd4762	-0.10804631
29	0x3d02831c	0.031863317
30	0xbc92b420	-0.017908156
31	0x3dc67d4a	0.09691866
32	0xbda7dc18	-0.081962764
33	0xbe2aac62	-0.16667321
34	0xbd99805b	-0.07495185
35	0x3e040159	0.12891139
36	0x3c6ff940	0.014646828
37	0xbd8669ce	-0.065631494
38	0x3e33a0c9	0.17541803
39	0x3d671bac	0.056422874
40	0xbdda9e6b	-0.10674747
41	0xbd9739f1	-0.07384098
42	0xbd93ae42	-0.072109714
43	0xbda79a88	-0.08183771
44	0x3d6e19a0	0.058129907
45	0xbc60abe0	-0.013712853
46	0x3e27516d	0.16339655
47	0x3dd0a556	0.10187785
48	0xbc0f7530	-0.008755967
49	0x3de19a46	0.110157534
50	0x3d4cd178	0.050004452
51	0x3d2310d8	0.039810985
52	0x3c2b52a0	0.010456711
53	0xbd64cd1a	-0.055859663
54	0xbdfeddd3	-0.12444653
55	0x3dda3752	0.10655083
56	0xba918b00	-0.0011104047
57	0x3e0e7e8f	0.13915466
58	0xbd551a16	-0.05202683
59	0x3d8c78e4	0.068589956
60	0x3cc73f40	0.024322152
61	0x3d4a9eb4	0.049467757
62	0x3e0e2091	0.1387961
63	0x3d851dcc	0.06499824
64	0xbe2c7006	-0.16839609
65	0xbe200cb2	-0.15629843
66	0xbe026c5b	-0.12736647
67	0x3d9d2c1a	0.07674427
68	0xbd3b81dc	-0.04577814
69	0xbd82ae7b	-0.06380936
70	0x3a3e6f00	0.0007264465
71	0xbe07817d	-0.1323299
72	0x3dd3e026	0.10345487
73	0xbdd07143	-0.10177853
74	0xbd90016e	-0.07031523
75	0x3ba10040	0.00491336
76	0xbe13b897	-0.14425884
77	0xbdc58c90	-0.09645951
78	0x3dce552a	0.100748375
79	0xbce5f618	-0.028071448
80	0xbe129652	-0.14315155
81	0x3d151c04	0.03640367
82	0x3db3ee52	0.0878569
83	0xbd1e9bf8	-0.038722962
84	0xbe2c80da	-0.16846028
85	0x3e14a7ab	0.14517085
86	0xbe2be218	-0.16785467
87	0xbe2d19ff	-0.16904448
88	0xbd8708e2	-0.06593491
89	0x3d691204	0.056901947
90	0xbd11d370	-0.035602033
91	0x3de52cd2	0.111901894
92	0xbc35e7c0	-0.011102617
93	0xbdaa68b0	-0.08320749
94	0xbdd884bb	-0.10572191
95	0x3dee01b2	0.11621417
96	0xbe238647	-0.15969191
97	0xbd44e16c	-0.04806654
98	0xbcddb430	-0.02706346
99	0xbe2458e8	-0.1604954
100	0xbdbcf0c1	-0.09225608
101	0x3d4f230c	0.050570533
102	0xbd25490c	-0.040352866
103	0x3c1f3680	0.009717584
104	0x3e0e7f49	0.13915743
105	0x3e0b6ec9	0.1361648
106	0x3c0f6300	0.008751631
107	0x3e0a8299	0.13526382
108	0xbd42a298	-0.047518343
109	0x3abdd780	0.001448378
110	0xbe2d0695	-0.16897042
111	0x3dd40e12	0.10354246
112	0x3d90b6e4	0.070661336
113	0x3de84afa	0.11342426
114	0xbd795adc	-0.060877666
115	0x3dcf323a	0.10117002
116	0xba5b5c00	-0.0008367896
117	0xbdd7b11b	-0.10531827
118	0xbde8cc1c	-0.11367056
119	0xbd64462e	-0.05573099
120	0x3e1d3a73	0.15354328
121	0x3e060281	0.13086893
122	0xbda92ba3	-0.08260276
123	0xbd983097	-0.07431143
124	0xbe2690ed	-0.16266222
125	0xbe1c0561	-0.15236427
126	0xbe1fb14d	-0.15594979
127	0x3dc2e77e	0.0951681
128	0xbd59412b	-0.053040665
129	0x3dee1bb5	0.116263784
130	0x3db960f2	0.09051694
131	0xbe983370	-0.29726744
132	0x3c811220	0.015755713
133	0x3df0d8c3	0.11760094
134	0x3d71f819	0.059074495
135	0xbd8255c6	-0.06364016
136	0xbcfc052c	-0.030764185
137	0x3e2ea905	0.17056663
138	0x3e4ecae9	0.20194592
139	0x3e4dd2be	0.20099923
140	0x3eaf7d97	0.34275505
141	0xbdebacdf	-0.11507582
142	0xbdff4ec7	-0.124661975
143	0x3da89bab	0.08232816
144	0x3c69c0d8	0.014267169
145	0x3e1aaff1	0.15106179
146	0xbe9e097c	-0.3086661
147	0xbe1bf070	-0.15228438
148	0xbc8e57f5	-0.017375926
149	0xbe1c40f3	-0.15259151
150	0x3e14f269	0.14545597
151	0xbcbd6d9a	-0.023123551
152	0xbe082405	-0.1329499
153	0xbd330c12	-0.043712683
154	0xbe758e22	-0.2398
155	0x3d933f8b	0.07189854
156	0x3dcffa9c	0.10155222
157	0x3e4dd16f	0.20099424
158	0xbc126d69	-0.008937218
159	0xbb9b9c5c	-0.004748864
160	0x3e04e9ec	0.12979859
161	0xbe0580d9	-0.13037433
162	0x3e02c6b0	0.12771106
163	0xbd03f9ec	-0.032220766
164	0xbcc89c9e	-0.024488743
165	0x3d8d2a06	0.06892781
166	0xbe158af0	-0.14603782
167	0xbd87fe56	-0.066403076
168	0x3dca6acb	0.098836504
169	0x3e056e77	0.1303042
170	0x3d04104b	0.0322421
171	0xbc9a5c1a	-0.018842746
172	0x3dd0d930	0.10197675
173	0xbdbe8ff7	-0.09304803
174	0x3dfe77b2	0.12425174
175	0x3e7109a7	0.23538838
176	0x3c92718e	0.017876413
177	0x3e02908a	0.1275045
178	0xbcafcb77	-0.021459324
179	0xbd8115c9	-0.06302983
180	0x3d1b20ab	0.03787295
181	0x3e30d4ab	0.17268626
182	0xbd570f82	-0.052505024
183	0x3ca7835c	0.02044838
184	0x3e4fb57c	0.20284075
185	0xbe0fe922	-0.14053777
186	0xbd9e5e4e	-0.07732831
187	0xbe0ed156	-0.13947043
188	0xbc5ea38b	-0.013588796
189	0x3e227cea	0.15867963
190	0xbd00f304	-0.031481758
191	0xbdc7cf42	-0.09756328
192	0x3dde856f	0.10865294
193	0x3d11c058	0.035583824
194	0x3d21961c	0.039449796
195	0x3e9fd752	0.31218964
196	0x3d8104a6	0.06299715
197	0xbe5c7b63	-0.21531443
198	0x3d698155	0.057008106
199	0x3db9a46b	0.09064563
200	0xbd6b6450	-0.057468712
201	0xbdf47942	-0.119371906
202	0xbd8a78b3	-0.06761303
203	0xbd32aa68	-0.043619543
204	0xbdbf190a	-0.09330948
205	0xbe7877ad	-0.24264403
206	0x3e76139e	0.24030921
207	0xbd9d921d	-0.076938845
208	0x3e9bf285	0.30458465
209	0xbc8460b0	-0.016159385
210	0x3d71a80c	0.058998153
211	0x3e3c4f7a	0.18389693
212	0x3c8ca4b9	0.01716839
213	0xbe00e0d0	-0.12585759
214	0xbcf6b398	-0.030114934
215	0xbe00fb8f	-0.12595962
216	0xbd5c42dc	-0.0537747
217	0x3c206cd9	0.009791576
218	0x3e2da9ba	0.16959277
219	0x3e51e6b2	0.2049816
220	0xbe7962d2	-0.24354103
221	0x3e0b33c4	0.13593966
222	0xbd4c59f6	-0.04989048
223	0x3df54048	0.11975151
224	0xbc9a3387	-0.018823398
225	0x3e161f33	0.14660339
226	0xbd48881f	-0.04895794
227	0x3e1b9ae9	0.15195812
228	0x3e5d1cad	0.2159297
229	0xbc351785	-0.011052971
230	0xbd0d2c44	-0.034466043
231	0x3d78574b	0.060630124
232	0xbdbdcc29	-0.09267456
233	0x3dea66de	0.114454016
234	0x3d95168e	0.072796926
235	0xbd5ccec4	-0.053908125
236	0xbe0717b8	-0.13192642
237	0xbc4ecad3	-0.012621599
238	0xbe288628	-0.16457427
239	0x3d9693d1	0.073524125
240	0xbe2c0973	-0.1680048
241	0xbdec5a0f	-0.11540615
242	0x3dbb021d	0.091312625
243	0x3caa2d80	0.02077365
244	0x3d8486a3	0.064709924
245	0xbc4ff868	-0.012693502
246	0xbd4d9711	-0.050192896
247	0xbdf8b161	-0.12143207
248	0x3c4c4e3b	0.0124698235
249	0xbd899f6b	-0.0671986
250	0xbe8184ce	-0.25296634
251	0x3e67c2eb	0.22632949
252	0x3cff1c8d	0.031141544
253	0x3d5ce101	0.053925518
254	0x3c721407	0.014775283
255	0xbe096199	-0.13416137

arith.constant3 f4 [2]
0	0x3d7e1962	0.062035926
1	0xbd7e1964	-0.062035933

arith.constant4 f4 [32]
0	0xbcbcedab	-0.023062548
1	0x3d96c51b	0.07361814
2	0xbc8d7e7a	-0.017272223
3	0x00000000	0.0
4	0x00000000	0.0
5	0xbc6b2235	-0.014351417
6	0x3d94b901	0.07261849
7	0x00000000	0.0
8	0xbca1c1f7	-0.01974581
9	0xbc3217dd	-0.010869947
10	0xbcda400f	-0.026641874
11	0x3d8b8117	0.06811731
12	0xbd607bf3	-0.054805707
13	0x00000000	0.0
14	0xbcb0c796	-0.021579545
15	0x00000000	0.0
16	0xbc1a220b	-0.009407531
17	0xbc60e6c2	-0.013726892
18	0x3d8bc4a1	0.06824613
19	0x3d9131b2	0.07089557
20	0x3d9332bd	0.07187412
21	0xbc9692e9	-0.0183806
22	0x3d7b6bd7	0.06138214
23	0x3d7e2bad	0.06205337
24	0xbc6a8289	-0.014313349
25	0xbd5f4e9d	-0.05451833
26	0xbd0d1899	-0.034447286
27	0xbc9b2aa4	-0.018941231
28	0xbd1a7575	-0.037709672
29	0xbbb553a3	-0.005533652
30	0x3b83ecb2	0.004026019
31	0x3ccd0721	0.025027813

sequential_1/dense_1_2/BiasAdd/ReadVariableOp f4 [64]
0	0x00000000	0.0
1	0xbc049dcf	-0.008094265
2	0x3db64f6b	0.089018665
3	0xbbd5a87c	-0.006520329
4	0x3d9bbb3f	0.07604074
5	0x3d750df4	0.05982776
6	0x3ca8a55b	0.02058666
7	0xbc120055	-0.008911212
8	0x3c934b80	0.017980337
9	0xbd40324b	-0.046922963
10	0xbd2cdf37	-0.04220506
11	0x3a675aae	0.0008825463
12	0xbcb3c5bf	-0.021944879
13	0x00000000	0.0
14	0xbd19a37d	-0.03750943
15	0xbcf23eeb	-0.029571017
16	0xbc8cbcd6	-0.017179888
17	0x00000000	0.0
18	0xbd25fbf9	-0.040523503
19	0xbcad4b5f	-0.021154104
20	0xbd4f7677	-0.050650086
21	0x3c9111bb	0.01770865
22	0x3d819059	0.0632636
23	0x3d9d6c16	0.076866314
24	0xbd088f57	-0.033339825
25	0xbd6b4c60	-0.057445884
26	0xbc0a9f97	-0.008460901
27	0xbd0b6967	-0.034036066
28	0x3d7820e9	0.06057826
29	0xbd3f421c	-0.046693906
30	0x3d8c8eae	0.068631515
31	0xbd2fc3f6	-0.042911492
32	0xbd0b8761	-0.034064654
33	0xbb28f35f	-0.0025779826
34	0x3d4a2740	0.049353838
35	0xbbf1d180	-0.0073797107
36	0x3d7ec3ec	0.062198564
37	0x3d4b1a69	0.049585734
38	0xbc72f082	-0.014827849
39	0xbbb72e0c	-0.005590206
40	0x3d82865d	0.06373284
41	0x3d85becc	0.06530532
42	0xbb83b16f	-0.0040189545
43	0x3cdaa0d6	0.02668802
44	0xbd469dd3	-0.048490357
45	0x3da80d76	0.082056925
46	0x3d7f3775	0.062308747
47	0xbc8a5d7d	-0.016890282
48	0xbc0159b9	-0.007894927
49	0x3d8434b1	0.064553626
50	0xbd0f4c1d	-0.034984697
51	0x3da702e1	0.08154846
52	0x00000000	0.0
53	0x3acac74f	0.0015470776
54	0xbc101a8e	-0.008795394
55	0xbd1b5bb4	-0.03792925
56	0x3d7b456f	0.061345514
57	0x3c581954	0.013189632
58	0x3d9358f0	0.07194698
59	0x3d632778	0.055457562
60	0x3d6ba34b	0.057528775
61	0x00000000	0.0
62	0xbd05bd65	-0.032651324
63	0xbbc2e328	-0.0059474893

sequential_1/dense_1/BiasAdd/ReadVariableOp f4 [128]
0	0x3d84e5d3	0.06489148
1	0xbd26b476	-0.040699445
2	0x00000000	0.0
3	0xb6f350e0	-7.2513794e-06
4	0x00000000	0.0
5	0xbcc3b288	-0.023888841
6	0x3d7f3d99	0.062314603
7	0xbd33a2b4	-0.043856338
8	0x3dc16acb	0.09444197
9	0xbd0405cf	-0.032232102
10	0xbd228313	-0.039675783
11	0xbd8a7046	-0.06759696
12	0x3d0565bd	0.03256773
13	0x3d619d9d	0.055081952
14	0xbca6502e	-0.020301905
15	0xbd4ffa61	-0.05077589
16	0x3da84be0	0.08217597
17	0x3d574036	0.05255147
18	0x3ca77499	0.02044134
19	0xbda7e422	-0.0819781
20	0x3d89504f	0.06704771
21	0x3db7c1ff	0.08972549
22	0xbd841a2d	-0.06450305
23	0x3cadf716	0.021235984
24	0x3e063c7f	0.13109015
25	0xbca9a931	-0.02071056
26	0xbc5dbf64	-0.013534401
27	0x3c8be335	0.017076114
28	0xbd512e88	-0.051069766
29	0x3ccd58a0	0.025066674
30	0x3de45ab6	0.11150114
31	0xbd556a2b	-0.052103203
32	0xbbe52952	-0.006993451
33	0x3d628ad5	0.05530818
34	0xbd80c1d2	-0.06286968
35	0x00000000	0.0
36	0xbd8652d2	-0.065587655
37	0xbd0e7366	-0.03477802
38	0x00000000	0.0
39	0x00000000	0.0
40	0xbce2b7a9	-0.027675467
41	0x3b312d61	0.0027035105
42	0x3c163dbe	0.009169994
43	0x3d85fff5	0.065429606
44	0xbd5363cd	-0.05160885
45	0x3da43033	0.08017006
46	0xbd46a257	-0.048494663
47	0xbd90a27c	-0.070622414
48	0x3d1d7a09	0.03844646
49	0x3d76888e	0.060188822
50	0xbd8e1e14	-0.06939331
51	0x3dabbfff	0.0838623
52	0xbcfe0d69	-0.031012254
53	0x3d83299f	0.06404423
54	0x00000000	0.0
55	0xbcec2e5b	-0.028830698
56	0x3db064dc	0.086129874
57	0x3d0209fa	0.031747796
58	0xbbb19bf1	-0.005420201
59	0x3d2cf77b	0.042228203
60	0x3a62f66e	0.00086579367
61	0xbce12ba0	-0.027486622
62	0x3da9965c	0.08280632
63	0x3d4de35e	0.050265662
64	0xbcb55cb6	-0.022138935
65	0x3c3a1fc2	0.011360111
66	0x3dbeaebb	0.09310671
67	0x3c435512	0.011922138
68	0x00000000	0.0
69	0x3d3641e6	0.04449644
70	0xbd609bc9	-0.05483607
71	0xbc1c25c4	-0.009530488
72	0xbc9c6e63	-0.019095605
73	0x3d88862e	0.06666218
74	0xbcf617a4	-0.03004057
75	0xbd43901d	-0.04774486
76	0xbd6dfdc4	-0.058103338
77	0x3d634b2d	0.055491615
78	0x39a73422	0.00031891564
79	0x3d964a25	0.07338361
80	0xbcc2faa2	-0.023801152
81	0x3bcd44f4	0.0062643234
82	0x3d01c63e	0.0316832
83	0x3cc02215	0.023453752
84	0xbd3a23f3	-0.04544444
85	0x3c61d4e8	0.013783671
86	0x3c1f52ee	0.009724362
87	0x3d5e87c6	0.054328702
88	0x00000000	0.0
89	0xbc778aa7	-0.015108741
90	0x3d225424	0.039631024
91	0xbc154c7e	-0.009112475
92	0x3d032573	0.032018136
93	0xbcbd682e	-0.023120966
94	0x3daf5640	0.08561373
95	0x3d9d71ab	0.07687696
96	0xbc6e6375	-0.01455008
97	0xbb3513c2	-0.0027630185
98	0xbc907832	-0.017635439
99	0xbd7f733f	-0.062365767
100	0xbd23a5e8	-0.039953142
101	0x3dc2f3fc	0.095191926
102	0x00000000	0.0
103	0x3d7bc8c5	0.061470766
104	0x3d644c94	0.055737093
105	0xbcf23108	-0.029564396
106	0x3d24ffd8	0.040283054
107	0x3bc951ee	0.0061438
108	0x00000000	0.0
109	0x3d71435b	0.058902126
110	0x3d8614d7	0.06546944
111	0x3c981af5	0.018567542
112	0x00000000	0.0
113	0x3d506c18	0.050884336
114	0x3b7a6f3a	0.003821327
115	0xbd322f01	-0.043501858
116	0xbc9d0a9c	-0.019170098
117	0x3db8eccc	0.090295404
118	0xbaad0b92	-0.0013202301
119	0x3d129633	0.035787772
120	0xbd8a72c8	-0.06760174
121	0xbd5fa849	-0.05460385
122	0x3da101d2	0.07861675
123	0x3d75d58f	0.06001812
124	0xbd46c0fc	-0.048523888
125	0x3da85bfa	0.08220668
126	0x3dcf3c69	0.10118944
127	0xba3ba0db	-0.0007157453

sequential_1/dense_1/MatMul f4 [128, 8]
0	0xbe36f70d	-0.1786768
1	0xbe663552	-0.22481278
2	0x3d9c5207	0.07632833
3	0x3e354f33	0.17705993
4	0xbe0f3a7e	-0.13987157
5	0x3e172a81	0.14762308
6	0x3de50e79	0.11184401
7	0xbe8d6cfe	-0.27622217
8	0x3dcae0d8	0.09906167
9	0x3e05fb60	0.13084173
10	0xbdd57c22	-0.10424067
11	0x3e25a4c6	0.16176137
12	0xbc82704b	-0.015922686
13	0x3e3684d9	0.17824115
14	0x3da02114	0.07818809
15	0xbe2fc78e	-0.17165968
16	0xbcd0bdb8	-0.02548109
17	0xbe174301	-0.14771654
18	0xbe369b2c	-0.17832631
19	0xbca320e0	-0.019913137
20	0x3dce3dca	0.10070379
21	0x3d6958fc	0.056969628
22	0xbddf144c	-0.10892543
23	0x3d03cd0c	0.03217797
24	0x3e874195	0.26417223
25	0xbe518192	-0.20459583
26	0x3d7bcabb	0.061472636
27	0xbe9417eb	-0.28924498
28	0xbccf35f5	-0.025294283
29	0xbe2aefa4	-0.16692978
30	0x3c79c190	0.015243903
31	0x3e46ba49	0.19407
32	0xbca6c4b8	-0.020357475
33	0xbd2ce650	-0.04221183
34	0xbe54da0b	-0.20786302
35	0x3dc9a44a	0.09845789
36	0xbe519f81	-0.20471002
37	0xbe05f141	-0.13080312
38	0x3df6a512	0.120432034
39	0xbdddb032	-0.10824622
40	0x3e7f9c4f	0.24961971
41	0xbddfe529	-0.10932381
42	0xbbeb1d39	-0.0071751145
43	0x3c3e4b97	0.011614702
44	0xbe5f6903	-0.21817403
45	0x3e1cb16a	0.15302053
46	0xbd1c9ef2	-0.03823752
47	0xbdaa4930	-0.08314741
48	0xbd51af25	-0.05119242
49	0x3e235968	0.15952075
50	0x3e370e5f	0.17876576
51	0xbe3d6f73	-0.18499546
52	0x3df24400	0.11829376
53	0x3d98e4f3	0.074655436
54	0xbdb5d546	-0.08878569
55	0xbd959b2e	-0.07304989
56	0xbd40d2fb	-0.047076207
57	0x3e59c4bf	0.21266459
58	0xbd34cf7b	-0.04414318
59	0xbdfb7b49	-0.12279374
60	0x3e4a9eaa	0.19787088
61	0x3dd55c1b	0.10417958
62	0x3d949074	0.07254115
63	0xbdd50a5b	-0.10402366
64	0xbe255700	-0.16146469
65	0xbd08a2b0	-0.033358276
66	0x3b970aa1	0.0046094214
67	0x3e0aa432	0.13539198
68	0x3dcc9141	0.099886425
69	0xbd9770ff	-0.07394599
70	0x3e3b92e8	0.18317759
71	0xbe83ebab	-0.25765738
72	0x3d8ee0a4	0.069764405
73	0x3daaa984	0.08333114
74	0xbdc34c2b	-0.09536012
75	0x3e3aea68	0.18253481
76	0x3bfcdbc0	0.007716626
77	0x3dcefe72	0.10107125
78	0xbd62bb81	-0.0553546
79	0x3d543a8e	0.051813655
80	0x3cf9d5ac	0.030497395
81	0x3e2a1d45	0.16612728
82	0x3e43f26f	0.1913545
83	0x3dc114c7	0.09427791
84	0xbe271d44	-0.16319758
85	0x3e08f09f	0.1337304
86	0xbdc7e165	-0.097597875
87	0xbda8fc59	-0.082512565
88	0xbe05c7d1	-0.13064505
89	0xbd35eeca	-0.04441718
90	0x3e1386b2	0.14406851
91	0x3da7478f	0.081679456
92	0x3df89fc3	0.12139847
93	0x3ce92eb8	0.02846466
94	0xbcdb8705	-0.02679778
95	0x3e1ce7db	0.15322821
96	0x3e174a49	0.14774431
97	0x3c8403a6	0.016115021
98	0xbdab8bb9	-0.08376259
99	0xbee89145	-0.45423332
100	0xbea976c6	-0.3309843
101	0xbca2b9f8	-0.019864067
102	0x3e60816a	0.21924368
103	0xbeb85e67	-0.36009523
104	0x3c4d3f7e	0.012527345
105	0x3d5fd59c	0.054647073
106	0x3df8ce97	0.12148779
107	0xbdabac05	-0.083824195
108	0xbc4b818d	-0.012421024
109	0x3acfdfc8	0.0015859539
110	0xbd882aca	-0.06648786
111	0xbe7d40bc	-0.24731725
112	0xbd743be3	-0.059627425
113	0x3d4fb810	0.050712645
114	0x3d1bd567	0.038045313
115	0x3e0f99a0	0.14023447
116	0xbe63aa65	-0.22232969
117	0x3e251450	0.1612103
118	0x3d8889e6	0.06666927
119	0x3e18862c	0.14894933
120	0x3bd597b7	0.00651833
121	0x3dd430f7	0.10360902
122	0x3d08719b	0.033311468
123	0xbd254a1f	-0.04035389
124	0xbd1b3f31	-0.03790206
125	0x3d761c0a	0.060085334
126	0xbdabb52e	-0.08384167
127	0x3e0245a8	0.12721884
128	0xbc8d4ac5	-0.017247567
129	0xbdb78c16	-0.08962266
130	0x3e10105e	0.14068744
131	0x3d9ea04f	0.0774542
132	0x3e5a1c0f	0.21299766
133	0x3da5fad0	0.08104479
134	0xbe474d20	-0.19463015
135	0xbe83bcb6	-0.25729913
136	0xbd1cbab8	-0.038264006
137	0x3e22b404	0.15888983
138	0xbdf49166	-0.11941795
139	0xbce7bc3a	-0.028287996
140	0x3d0018b5	0.031273562
141	0xbd6ef316	-0.058337294
142	0xbdb87dcb	-0.09008368
143	0xbe32a7c6	-0.17446813
144	0xbd81accf	-0.06331789
145	0xbe1640f9	-0.14673223
146	0xbd2e1032	-0.042495914
147	0xbe60dd7e	-0.21959493
148	0x3e11d2bf	0.1424055
149	0x3e08cf7b	0.13360398
150	0x3e01a474	0.1266039
151	0xbc12cfa0	-0.0089606345
152	0x3e3b36f2	0.18282679
153	0x3e630d04	0.22172934
154	0x3d1a7e2b	0.03771798
155	0x3e19c75b	0.15017454
156	0x3e491cc7	0.19639884
157	0xbe3b3a7d	-0.1828403
158	0x3cab4e1d	0.02091127
159	0xbd56b54f	-0.052419003
160	0xbe882f81	-0.26598743
161	0xbdb41f85	-0.087950744
162	0x3e475ccf	0.19468997
163	0x3e04dd34	0.12975007
164	0xbc10049c	-0.008790161
165	0x3bfe68fc	0.00776398
166	0x3e37eead	0.17962141
167	0xbe918044	-0.2841817
168	0xbd75e6d5	-0.06003459
169	0xbe287f5c	-0.16454834
170	0x3e5cae8a	0.21550956
171	0x3d159287	0.036516692
172	0xbdb8ebf5	-0.0902938
173	0xbd974151	-0.07385505
174	0xbdc8fb9e	-0.09813617
175	0x3e416c3c	0.18888944
176	0x3d91df2b	0.07122644
177	0x3e01ebfd	0.12687679
178	0x3e1ca746	0.15298185
179	0x3e2960cb	0.1654083
180	0x3d88f081	0.066864975
181	0x3db45c59	0.088066764
182	0x3de197c1	0.11015273
183	0x3d77257c	0.060338482
184	0xbc3a6890	-0.011377469
185	0x3d8c4d41	0.068506725
186	0x3df367ca	0.118850306
187	0xbddce51a	-0.10785885
188	0x3e0f5a92	0.13999394
189	0x3e056436	0.13026509
190	0x3c52c62a	0.012864629
191	0x3cbff576	0.023432475
192	0xbb5c6334	-0.0033628466
193	0xbddc5ac1	-0.107594974
194	0x3b698f65	0.0035638448
195	0x3e2992d8	0.16559923
196	0xbde5d631	-0.112224944
197	0x3e123500	0.1427803
198	0xbe4dae7b	-0.2008609
199	0xbe5b6e44	-0.21428782
200	0xbc16818e	-0.009186162
201	0x3db6003a	0.08886762
202	0x3d3aac92	0.045574732
203	0xbcb33846	-0.02187742
204	0x3e2779b2	0.16355017
205	0x3e6d9c57	0.2320417
206	0x3cdfca44	0.027318127
207	0xbddbe122	-0.107363
208	0x3cb9488c	0.0226176
209	0x3dd94a9e	0.10609935
210	0xbd91d49f	-0.071206324
211	0xbd968ce5	-0.07351092
212	0x3e09c7dd	0.13455148
213	0xbe464f13	-0.19366102
214	0x3de42dc1	0.11141539
215	0xbe41f6cb	-0.189418
216	0xbe6d2365	-0.23158033
217	0xbe533acf	-0.20627902
218	0x3dbd636a	0.09247477
219	0x3e389660	0.18026114
220	0xbe133a33	-0.1437767
221	0xbd82a791	-0.06379617
222	0x3e2187bb	0.15774433
223	0xbd36193e	-0.044457667
224	0x3e106419	0.14100684
225	0x3e169c95	0.14708169
226	0xbd8354dd	-0.06412671
227	0xbe0dd51b	-0.13850825
228	0x3da64425	0.08118466
229	0x3dda6d6e	0.10665403
230	0x3c2aff2d	0.010436815
231	0x3e2c1ad7	0.16807114
232	0x3e465f72	0.19372347
233	0xbe56d0ba	-0.2097806
234	0xbe0e95e1	-0.13924362
235	0x3e8874d0	0.2665162
236	0xbe880613	-0.26567134
237	0x3b2aac2f	0.002604257
238	0x3d52131b	0.05128775
239	0x3dcd778e	0.10032569
240	0xbdac452d	-0.08411632
241	0xbd8a0517	-0.06739252
242	0x3d617aa6	0.055048607
243	0x3e125489	0.1429006
244	0x3c878538	0.016543016
245	0xbd8248e8	-0.06361562
246	0xbdf4d3bb	-0.11954447
247	0xbdaa37d1	-0.083114274
248	0xbe6614f5	-0.22468932
249	0xbdc45223	-0.09585979
250	0x3dbba2d0	0.091619134
251	0x3dead60c	0.114666075
252	0x3d799f3e	0.06094288
253	0x3e368985	0.17825897
254	0x3d174b22	0.036936887
255	0x3d8f2c23	0.0699084
